mnist_cnn.pth (torch, 830872 bytes, 8 tensors)

conv1.weight f4 [16, 1, 3, 3]
0	0x3d683619	0.056692217
1	0xbe9599a4	-0.2921878
2	0xbe9038d5	-0.2816836
3	0xbe1040f5	-0.14087279
4	0xbe75fc8d	-0.24022122
5	0xbe2bc33a	-0.16773692
6	0xbed06b0b	-0.40706667
7	0xbe8e99eb	-0.27851805
8	0x3daf3d32	0.08556594
9	0xbc62ccc6	-0.013842767
10	0x3f091703	0.5355074
11	0x3eace246	0.33766383
12	0x3de1dc76	0.11028378
13	0xbdae441d	-0.08509085
14	0x3ed72c43	0.42025957
15	0xbf029e66	-0.51022947
16	0xbecbf806	-0.39837664
17	0xbe0002eb	-0.12501113
18	0xbe834bcc	-0.25643766
19	0xbe33078f	-0.17483352
20	0xbf08de8c	-0.5346458
21	0x3eb4fcae	0.3534903
22	0xbda7b640	-0.08189058
23	0xbe08c9d6	-0.13358244
24	0x3eaa6e2f	0.33287188
25	0x3e6335ee	0.22188541
26	0x3ebf5f20	0.37377262
27	0xbe112f55	-0.14178212
28	0xbeb05fed	-0.34448186
29	0xbed94e2b	-0.4244245
30	0x3ec33275	0.38124433
31	0xbd6e22cd	-0.058138657
32	0xbb3d53f4	-0.0028889151
33	0xbd1c82ab	-0.038210552
34	0x3e39cc66	0.18144378
35	0x3f0d21f2	0.5512992
36	0x3e8b43b8	0.27200103
37	0x3dcc390a	0.09971817
38	0xbde1489a	-0.11000176
39	0xbe86261c	-0.2620095
40	0xbe17b520	-0.14815187
41	0xbe86b994	-0.2631346
42	0x3daaa1f3	0.083316706
43	0x3c4b9eae	0.012427969
44	0xbdd6be68	-0.10485536
45	0x3f03984e	0.51404274
46	0xbef8b260	-0.4857359
47	0xbf1468dd	-0.5797251
48	0x3e830c14	0.25595152
49	0x3f0d342f	0.5515775
50	0x3cbb9ade	0.022900995
51	0x3d4a8e73	0.049452256
52	0x3b405d04	0.0029352317
53	0x3dcecc16	0.1009752
54	0x3e3b5340	0.18293476
55	0x3eb6a90b	0.35675845
56	0x3ed9038b	0.42385516
57	0x3ee5595c	0.44794738
58	0x3edc3e99	0.43016508
59	0x3eba00f7	0.3632886
60	0x3ee035d8	0.4379108
61	0x3e209c6e	0.15684673
62	0xbd1d4a62	-0.038401015
63	0x3db3729c	0.087620944
64	0x3ba1acbc	0.0049339216
65	0x3d11ffdc	0.035644397
66	0x3edd3861	0.43207076
67	0x3e5625d5	0.2091287
68	0xbed291af	-0.41126773
69	0xbd393ad2	-0.04522211
70	0x3ed7a508	0.42118096
71	0xbed7e654	-0.42167914
72	0x3daf90b0	0.08572519
73	0x3e8978b0	0.2684989
74	0x3cd70dfb	0.026251784
75	0x3e81a4ee	0.25321144
76	0x3e8f5a4f	0.27998587
77	0x3eccc5bd	0.39994612
78	0xbecf280e	-0.40460247
79	0xbf0227b9	-0.5084186
80	0xbeb37d81	-0.3505669
81	0xbf0991a6	-0.53737867
82	0x3ee65b93	0.4499174
83	0x3eabf300	0.33583832
84	0x3d3438e8	0.043999583
85	0x3f0db06e	0.55347335
86	0xbebfff47	-0.3749945
87	0x3ecbc69f	0.39799973
88	0xbd9fd45c	-0.07804176
89	0xbdcad2ac	-0.09903464
90	0x3eab70be	0.33484453
91	0x3ec104c6	0.37698954
92	0xbf33318f	-0.69997495
93	0x3ea201dc	0.31642044
94	0x3d72c921	0.059273843
95	0xbeba73c3	-0.36416444
96	0x3f0eebb7	0.5582842
97	0x3db06c61	0.08614422
98	0xbeb73055	-0.35779062
99	0x3c9d217a	0.019181002
100	0x3ef3b79e	0.47601026
101	0x3e8210a6	0.25403327
102	0xbea3f0f1	-0.3201976
103	0x3e967b43	0.29390916
104	0x3eae47de	0.34039205
105	0xbf0595a8	-0.5218148
106	0xbec0d05d	-0.3765897
107	0x3f044f7b	0.5168378
108	0xbed8769f	-0.42278
109	0x3c769f64	0.01505265
110	0x3e57a851	0.21060301
111	0xbeb5af99	-0.35485533
112	0x3e76bc9a	0.24095383
113	0x3e3924a7	0.18080388
114	0x3e93242f	0.28738543
115	0x3e7c35bf	0.24629878
116	0x3ecae432	0.39627224
117	0x3e99aa1b	0.30012593
118	0xbe91a4fe	-0.28446192
119	0x3e9e92ea	0.30971462
120	0xbebb00fa	-0.36524183
121	0xbeef619a	-0.46754152
122	0x3e51e60d	0.20497914
123	0xbba335fd	-0.004980801
124	0xbde522da	-0.11188288
125	0x3f192711	0.59825236
126	0xbe96b4f0	-0.2943492
127	0xbecde154	-0.40210974
128	0xbd804ca2	-0.062646165
129	0xbf084d63	-0.5324308
130	0x3d85119d	0.064975
131	0x3f24760f	0.64242643
132	0x3e99e4eb	0.30057463
133	0x3f3478ed	0.7049702
134	0xbd59c220	-0.053163648
135	0xbe551d3b	-0.20811932
136	0xbef89940	-0.4855442
137	0xbe8d54d8	-0.27603793
138	0xbea5a4b4	-0.3235222
139	0xbda8485a	-0.08216925
140	0x3ed6c9cc	0.41950834
141	0x3f1cd28f	0.61258787
142	0x3e9be051	0.30444577
143	0x3e24caae	0.16092941

conv1.bias f4 [16]
0	0xbe16a78d	-0.14712353
1	0x3e57b5f8	0.2106551
2	0xbe0254fa	-0.12727728
3	0xbd36d8a7	-0.04464021
4	0x3dadb58c	0.08481893
5	0x3e109ec0	0.14123058
6	0xbe5bb13c	-0.21454328
7	0x3e807c41	0.25094798
8	0xbd315f7d	-0.043303955
9	0x3e1beb68	0.15226519
10	0xbda4bd9f	-0.0804398
11	0xbdabf5f7	-0.083965234
12	0x3e1df7f4	0.15426618
13	0x3d928c08	0.07155615
14	0xbeae1a3c	-0.3400439
15	0x3c956d5e	0.018240627

conv2.weight f4 [32, 16, 3, 3]
0	0x3b108ee7	0.0022057833
1	0xbd6445ce	-0.055730633
2	0xbe1bdd88	-0.15221226
3	0xbd21b11d	-0.03947555
4	0xbd942179	-0.07232947
5	0xbe2de530	-0.1698196
6	0xbe29a971	-0.16568543
7	0xbdb406aa	-0.087903336
8	0xbe3da70a	-0.18520752
9	0xbe469bd2	-0.19395378
10	0xbe19de17	-0.15026127
11	0x3d8bcffa	0.06826778
12	0xbe0ea8e9	-0.13931622
13	0xbd436d8f	-0.047711905
14	0x3e36649e	0.1781182
15	0x3dcb56ff	0.099287026
16	0xbd4a9731	-0.049460594
17	0x3cfa7cd6	0.030577105
18	0x3ea04d63	0.3130904
19	0xbe42478b	-0.18972604
20	0xbe2659cf	-0.16245197
21	0x3e27a7a3	0.16372542
22	0xbe457ee3	-0.19286685
23	0xbe6c1d23	-0.2305799
24	0x3e320c80	0.17387581
25	0x3d836206	0.06415181
26	0x3c8065ca	0.015673537
27	0x3e147f44	0.14501673
28	0xbe2fcb94	-0.17167503
29	0xbe76d533	-0.24104767
30	0x3d06028a	0.032717265
31	0xbe859e91	-0.2609754
32	0xbeb04f3d	-0.34435454
33	0x3e568d7f	0.20952414
34	0x3d57fb18	0.052729696
35	0xbd8fc14e	-0.07019292
36	0x3d68b9ca	0.056817807
37	0x3a575535	0.0008214296
38	0xbe4e3417	-0.20137058
39	0xbd01f50f	-0.031727847
40	0x3d3f6d8b	0.046735328
41	0xbe2102e7	-0.15723763
42	0xbd7ac767	-0.06122532
43	0x3cabdf81	0.020980598
44	0xbe9f6669	-0.3113282
45	0xbb01682e	-0.0019745934
46	0xbd7c69ac	-0.061624214
47	0x3d087e47	0.033323552
48	0x3e455d80	0.19273949
49	0x3d981176	0.074252054
50	0x3de02b6b	0.10945781
51	0x3d7bf340	0.06151128
52	0x3d4d6f21	0.05015481
53	0xbdfc4c30	-0.12319219
54	0xbe900de8	-0.2813561
55	0xbe2cb697	-0.16866527
56	0x3caddda4	0.02122385
57	0x3ca1a182	0.019730333
58	0xbe7d3010	-0.24725366
59	0xbd029cf6	-0.03188797
60	0x3e1dc0f8	0.15405643
61	0xbe1c8626	-0.15285549
62	0x3dfd9751	0.12382377
63	0xbe36d93f	-0.1785631
64	0xbdaea72f	-0.085279815
65	0x3e39ddf2	0.18151072
66	0xbd177ee7	-0.036986258
67	0xbe17b7f3	-0.14816265
68	0x3dda5e83	0.10662558
69	0xbc087ca9	-0.008330503
70	0xbe18c8f9	-0.14920415
71	0xbde9f680	-0.11423969
72	0xbe629bf2	-0.22129801
73	0xbe74b5f0	-0.23897529
74	0xbe81479f	-0.25249955
75	0xbe1208dc	-0.14261192
76	0xbe8a9a69	-0.2707093
77	0xbe673c1d	-0.22581525
78	0x3e78b256	0.2428678
79	0xbe58d04b	-0.21173207
80	0xbe8bc6f6	-0.27300233
81	0xbebcad79	-0.368511
82	0xbd3743e4	-0.04474248
83	0x3e216922	0.15762761
84	0xbe0a20f4	-0.13489133
85	0xbe58cfe3	-0.21173052
86	0x3deb6729	0.114942856
87	0xbd19aa03	-0.03751565
88	0xbe0b5421	-0.13606311
89	0x3e3de641	0.18544866
90	0xbde55024	-0.11196926
91	0x3e18e0fe	0.14929578
92	0x3eaef0ff	0.3416824
93	0x3d004f1f	0.031325456
94	0xbe230c86	-0.15922746
95	0x3e4db43c	0.20088285
96	0xbcdea59c	-0.027178578
97	0xbe1458c8	-0.14486992
98	0xbc06847d	-0.008210299
99	0xbd413ccf	-0.047177132
100	0x3dade2dd	0.08490536
101	0x3e4bee2e	0.19915077
102	0xbe92f566	-0.2870285
103	0x3ce3c1c2	0.027802352
104	0x3eb31fad	0.34985104
105	0xbe506c32	-0.20353773
106	0xbd9326ea	-0.07185157
107	0x3ea0a9a5	0.31379429
108	0xbda9e7d9	-0.082961746
109	0xbd65f7dc	-0.05614458
110	0x3e4bc295	0.19898446
111	0xbe07b49c	-0.13252491
112	0xbc996255	-0.018723646
113	0x3e23f75c	0.16012329
114	0x3d385cca	0.045010366
115	0x3decb403	0.11557772
116	0x3e8dd355	0.27700296
117	0xbdc05433	-0.0939106
118	0x3cf0ba96	0.029385846
119	0x3e30b295	0.17255624
120	0xbe385418	-0.18000829
121	0xbc8840a0	-0.016632378
122	0x3deb8851	0.1150061
123	0xbd98b2df	-0.07455992
124	0x3d8bad12	0.0682012
125	0x3e0fd506	0.14046106
126	0xbc27d695	-0.010244031
127	0xbd7c7852	-0.061638184
128	0xbdae8a6d	-0.08522496
129	0x3cd94337	0.026521308
130	0xbe0ce2c4	-0.13758379
131	0xbe11194e	-0.14169809
132	0xbd9259b8	-0.07146019
133	0xbd6ee17a	-0.0583205
134	0x3de55202	0.111972824
135	0x3dcbb997	0.09947508
136	0xbe7d68fc	-0.2474708
137	0xbe1aa97b	-0.15103714
138	0x3de46ff6	0.11154167
139	0xbe0f26ad	-0.13979597
140	0xbe9ecb63	-0.31014547
141	0x3db26eb5	0.08712522
142	0x3e1f8941	0.15579702
143	0x3c61ab55	0.013773759
144	0x3d9152fb	0.070959054
145	0x3d38d161	0.045121554
146	0x3d8d9c62	0.06914593
147	0x3b4c7010	0.0031194724
148	0xbdcd2830	-0.10017431
149	0x3c9c84f3	0.019106364
150	0x3da9d129	0.08291847
151	0xbe16e9fc	-0.14737695
152	0xbc1c6bd9	-0.009547197
153	0xbdb353b0	-0.087561965
154	0xbd249ca2	-0.04018844
155	0x3da086b3	0.07838192
156	0xbe0593ad	-0.13044615
157	0x3d1b1e72	0.03787083
158	0xbe414f7d	-0.18877979
159	0xbdaffafe	-0.08592795
160	0x3ce010b1	0.02735171
161	0xbe339909	-0.17538847
162	0xbdc0e119	-0.09417934
163	0xbd9e6703	-0.07734492
164	0xbe6c9bd2	-0.23106316
165	0xbd9868b8	-0.074418485
166	0xbe63404c	-0.22192496
167	0xbe3b9f5f	-0.18322514
168	0xbe08526b	-0.1331269
169	0xbddbfb1a	-0.10741253
170	0x3df8192a	0.12114175
171	0x3cb16cee	0.021658387
172	0x3dace9f0	0.084430575
173	0xbe9abb21	-0.30220893
174	0x3d9561b3	0.07294025
175	0xbdadfec7	-0.084958605
176	0xbe82fe0f	-0.25584456
177	0x3d7f1186	0.06227257
178	0xbe9ec909	-0.31012753
179	0xbd93be4c	-0.072140306
180	0xbca47a6d	-0.020077908
181	0xbcdd2788	-0.026996389
182	0xbca36bb0	-0.01994881
183	0x3d439fbe	0.047759764
184	0xbe2f5d1c	-0.17125362
185	0x3e023361	0.12714912
186	0xba3b9c5e	-0.00071567844
187	0xbd50acbc	-0.050945982
188	0x3b967cc9	0.0045925123
189	0xbeb8e364	-0.36110985
190	0xbdf6d1d9	-0.12051744
191	0xbd75ca76	-0.060007535
192	0xbe1f767a	-0.15572539
193	0xbdb3c205	-0.08777241
194	0x3e11f5e2	0.14253953
195	0xbe8b09dc	-0.2715596
196	0xbc22b4ca	-0.009930799
197	0x3db639dd	0.08897755
198	0xbe5b6c06	-0.21427926
199	0x3d9ec402	0.07752229
200	0x3ae69154	0.0017590919
201	0xbd493c9f	-0.04913008
202	0x3dc4fc6c	0.09618458
203	0xbd4f2e85	-0.050581474
204	0x3d2ac7ae	0.041694336
205	0xbd2583d7	-0.040408935
206	0xbe033727	-0.12814008
207	0xbeb3e885	-0.35138336
208	0x3c3c906d	0.011509043
209	0x3dd9ecb5	0.106408514
210	0xbe96bb2b	-0.29439673
211	0x3d73c497	0.059513655
212	0x3dc52c95	0.09627644
213	0xbca81597	-0.020518107
214	0x3d1040cb	0.03521804
215	0x3c85cf0c	0.01633408
216	0xbccbfad7	-0.024899883
217	0xbe8f5abe	-0.27998918
218	0x3e0e63b6	0.13905224
219	0xbe33531a	-0.1751217
220	0xbe223262	-0.15839532
221	0xbe106032	-0.14099196
222	0xbe8260bc	-0.25464427
223	0xbe552e8a	-0.20818534
224	0xbda81372	-0.08206834
225	0xbd67e27c	-0.056612477
226	0x3d744078	0.059631795
227	0x3d7cc757	0.061713543
228	0xbd4dbbba	-0.050227858
229	0x3e06bae8	0.13157237
230	0x3dc623c4	0.096747905
231	0x3e0f5975	0.13998969
232	0x3e4ccac9	0.19999231
233	0x3c641dac	0.01392309
234	0xbf0fe1ea	-0.5620409
235	0x3db677a3	0.08909538
236	0x3dbdd296	0.09268682
237	0xbea3c3f8	-0.3198545
238	0x3e194430	0.14967418
239	0x3e515677	0.2044314
240	0x3e067965	0.13132246
241	0x3e065374	0.13117772
242	0x3e0537c6	0.13009557
243	0x3e0d9790	0.13827348
244	0xbe0baafa	-0.13639441
245	0xbe7fc6b6	-0.24978146
246	0x3db28a2a	0.08717759
247	0xbddf19af	-0.10893571
248	0xbf042125	-0.51613075
249	0x3d61ddef	0.055143293
250	0x3d5b9e13	0.05361755
251	0xbdf1415f	-0.11780047
252	0x3dad1219	0.084507175
253	0x3e08e18d	0.13367291
254	0xbce819ca	-0.02833261
255	0x3db0e963	0.08638265

conv2.bias f4 [32]
0	0x3d0df48c	0.034657046
1	0xbd438425	-0.047733445
2	0xbd9ace4a	-0.07558878
3	0xbcf1d09b	-0.029518416
4	0xbd85f277	-0.06540387
5	0xbddfb247	-0.109226756
6	0xbd0817d6	-0.033225857
7	0xbdac5791	-0.084151395
8	0xbd53483b	-0.051582556
9	0xbdf707fa	-0.12062068
10	0xbe0d59a9	-0.13803734
11	0xbe0f0d16	-0.13969836
12	0xbdea8e81	-0.11452962
13	0x3d10743b	0.035267096
14	0x3d554131	0.052064124
15	0xbdf46326	-0.119329736
16	0xbcfe10c0	-0.031013846
17	0xbe1bc7e9	-0.15212978
18	0xbdb87714	-0.09007087
19	0x3d0de790	0.034644663
20	0xbdbdc2cb	-0.092656694
21	0xbd4125d4	-0.047155216
22	0xbcae9a31	-0.021313759
23	0xbdc81b21	-0.097707994
24	0xbdff7cbf	-0.12474965
25	0xbdcfb544	-0.101419955
26	0x3c72d02d	0.014820141
27	0xbdedf054	-0.116181046
28	0x3b3a23e0	0.002840273
29	0xbcf06abd	-0.029347772
30	0xbd785b01	-0.060633663
31	0xbdba6c75	-0.09102718

fc1.weight f4 [128, 1568]
0	0xbc9782d4	-0.018495
1	0xbd28f662	-0.041250594
2	0xbd85c68e	-0.06532012
3	0xbc158bdc	-0.009127583
4	0xbdd79e86	-0.10528283
5	0xbc671ec7	-0.014106459
6	0xbcac6c4f	-0.02104774
7	0xbbb4f0c9	-0.005521868
8	0xbdbb2376	-0.09137623
9	0xbda3b1fb	-0.079929315
10	0xbbe030a0	-0.006841734
11	0x3d3e05f3	0.046392392
12	0x3ae5bd11	0.001752766
13	0xbaf6b67b	-0.0018822694
14	0x3d15bd2d	0.036557365
15	0xbdbeee36	-0.09322779
16	0xbd98de8f	-0.07464325
17	0xbcacac82	-0.021078352
18	0x3999745c	0.0002926913
19	0x3c8e7be7	0.017393066
20	0xbcf79882	-0.030224089
21	0xbd3d4529	-0.046208534
22	0xbdc39f5c	-0.0955188
23	0xbd847cfa	-0.0646915
24	0xbc48ae92	-0.012248652
25	0xbdbe7229	-0.09299118
26	0xbcb4ea18	-0.02208428
27	0xbc1f92d4	-0.009739596
28	0xbd4291ae	-0.047502212
29	0xbbe58e6c	-0.0070055034
30	0x3ce15878	0.027508005
31	0xbcd8d99a	-0.026470948
32	0x3d1fac55	0.038982708
33	0xbcb3eeca	-0.02196445
34	0xbc976f22	-0.01848561
35	0x3b74720c	0.0037299423
36	0xbc367ba4	-0.011137877
37	0xbbffc052	-0.007804909
38	0xbc8792e2	-0.016549531
39	0x3c8dc3fc	0.017305367
40	0x3cd31afe	0.025769707
41	0x3c3d90ff	0.011570214
42	0xbd33e338	-0.043917865
43	0xbd6f8f2b	-0.058486145
44	0xbc40cbc7	-0.011767334
45	0x3c03ad70	0.008036956
46	0x3d3625ea	0.04446975
47	0xbc44d015	-0.012012501
48	0xbd2f10d1	-0.042740647
49	0xbcdd93de	-0.027048048
50	0xbb8b3b2c	-0.004248997
51	0x3d41f44f	0.04735213
52	0xbd69d468	-0.057087332
53	0x3d0493c8	0.032367498
54	0xbc9b5bf9	-0.018964754
55	0xbced87d5	-0.028995434
56	0xbca2b62d	-0.019862259
57	0x3c1cb9e5	0.009565805
58	0xbcdbeb1f	-0.026845513
59	0xbd14e70b	-0.036353152
60	0x3c5a741b	0.013333346
61	0xbb36be0b	-0.002788427
62	0xbc532bae	-0.012888832
63	0xbce001e2	-0.027344648
64	0x3b7b2b0d	0.003832522
65	0xbdbc70bc	-0.0920119
66	0x3caf0312	0.021363769
67	0xbcd4de29	-0.02598484
68	0xbc07b68e	-0.0082832705
69	0x3c8fddf4	0.01756189
70	0x3c00949e	0.007847933
71	0xbcefedc6	-0.029288184
72	0xbd1d79c6	-0.03844621
73	0xbd83e834	-0.064407736
74	0xbd8d3bdc	-0.06896183
75	0xbd6c80c7	-0.05774
76	0xbc01afd9	-0.0079154605
77	0x3c817d19	0.015806722
78	0xbd75df2f	-0.060027298
79	0x39732f94	0.0002319201
80	0xbd861d83	-0.06548598
81	0xbd56794f	-0.052361783
82	0x3c20716c	0.009792667
83	0xbd76e90e	-0.060280852
84	0xbc575993	-0.013143915
85	0xbd515033	-0.051101875
86	0x3c8a37c2	0.01687229
87	0xbc9cd00c	-0.019142173
88	0xbc452f31	-0.012035177
89	0x3d17abdf	0.037029143
90	0xbb67936b	-0.003533567
91	0xbc17c5e9	-0.009263494
92	0x3b2bdca3	0.002622404
93	0xbc6e698e	-0.014551533
94	0x3c63ae93	0.013896602
95	0x3c90dcc6	0.017683398
96	0xbca8095b	-0.020512274
97	0xbcf6979a	-0.030101586
98	0x3c58db30	0.013235852
99	0x3ca55e22	0.020186488
100	0xbc2b2587	-0.010445959
101	0xbc284d4d	-0.010272336
102	0x3c98e3cc	0.01866331
103	0x3c31fba8	0.010863222
104	0xbc49f76e	-0.012327058
105	0x3d022615	0.0317746
106	0x3de6ce20	0.11269784
107	0x3ddeea24	0.108845025
108	0x3d85b641	0.06528903
109	0x3b7025bc	0.0036643585
110	0x3b624de1	0.0034531283
111	0x3b3627e0	0.0027794763
112	0x3d319d56	0.043362938
113	0x3d509015	0.050918657
114	0xbc1c342a	-0.009533921
115	0xbc2eeeeb	-0.01067708
116	0xbd5d05d2	-0.05396063
117	0xbd896bf5	-0.06710044
118	0xbcce1a1d	-0.025158936
119	0x3c8982f7	0.016786082
120	0x3c80a9a9	0.0157059
121	0xbba02be1	-0.0048880433
122	0xbb972259	-0.004612249
123	0x3b92b158	0.0044767074
124	0xbd010781	-0.031501297
125	0x3cee36a0	0.029078782
126	0x3d62c0c2	0.05535961
127	0xbd8971d1	-0.06711162
128	0xbda70605	-0.08155445
129	0xbd016408	-0.031589538
130	0x3d854268	0.065068066
131	0x3db817d9	0.089889236
132	0xbd181d80	-0.03713751
133	0x3d3b7eab	0.045775097
134	0xbd5e5403	-0.05427934
135	0xbd66b598	-0.056325525
136	0x3cbcb8c4	0.023037322
137	0x3c576562	0.01314673
138	0x3ab93eb8	0.0014133072
139	0xbe0385f6	-0.12844071
140	0xbc8d5167	-0.01725073
141	0xbde4b12d	-0.11166606
142	0xba33118f	-0.00068309245
143	0x3c6c6c33	0.014430094
144	0x3c2461f1	0.010033117
145	0x3d166d81	0.036725525
146	0x3c6a0551	0.014283494
147	0x3bbbc0b4	0.005729759
148	0xbd12f912	-0.035882063
149	0x3d9d4daa	0.07680829
150	0xbd333d3f	-0.04375958
151	0x3cbe5041	0.023231627
152	0xbd6cab10	-0.057780325
153	0xbcafdb9e	-0.021467026
154	0x3ce4a514	0.027910747
155	0x3ca72705	0.020404348
156	0xbd844735	-0.06458894
157	0xbd055d63	-0.032559764
158	0x3c260e5b	0.010135259
159	0xba556b86	-0.00081413274
160	0xbc8288d3	-0.015934383
161	0x3d9df75a	0.07713194
162	0xbdad6501	-0.084665306
163	0xbd9f5ca9	-0.077813454
164	0x3bef2d99	0.007299137
165	0xbc79bec7	-0.015243239
166	0xbd1e2899	-0.038612936
167	0x3d371fbc	0.044708
168	0xbcbc2503	-0.022966867
169	0xbd89736f	-0.0671147
170	0xbd4570e3	-0.04820336
171	0xbd9db18f	-0.07699882
172	0xbd317f82	-0.04333449
173	0xbda1f6f2	-0.07908429
174	0xbd8899b9	-0.06669945
175	0x3c98fec7	0.018676175
176	0xbd5019ca	-0.050805844
177	0xbd4ee291	-0.05050904
178	0xbd5681f6	-0.052370034
179	0xbb5b470f	-0.0033459102
180	0x3a84f881	0.0010144861
181	0xbd40a0d2	-0.04702837
182	0xbd4a0af7	-0.049326863
183	0xbd6790f3	-0.05653472
184	0xbd7ce5cf	-0.0617426
185	0x3c81afa3	0.01583082
186	0x3d0f0552	0.034917183
187	0x3ca98bea	0.020696599
188	0x3c0bd8e4	0.0085355975
189	0xbc0a4be7	-0.008440948
190	0x3d14c42d	0.0363199
191	0x3c03a418	0.0080347285
192	0xbcfca452	-0.030840073
193	0x3cd50dd7	0.026007576
194	0x3cb61adc	0.022229604
195	0xbb485e18	-0.0030573662
196	0xbd0544bc	-0.032536253
197	0xbc960a3a	-0.018315423
198	0x3a801a97	0.0009773549
199	0xbd17b249	-0.03703526
200	0xbd3fd059	-0.046829555
201	0x3d0cca28	0.03437248
202	0xbd8316f0	-0.06400859
203	0xbc682249	-0.0141683305
204	0xbb5f374d	-0.0034060061
205	0xbc6c98c0	-0.014440715
206	0xbdc19ba0	-0.09453511
207	0x3d6c37af	0.05767029
208	0x3d27fce6	0.041012667
209	0xba81847b	-0.0009881401
210	0xbca9ae75	-0.02071307
211	0x3aee5da6	0.0018185868
212	0xbe09e8f4	-0.13467771
213	0xbcbf11e1	-0.023323955
214	0xbcb8b5f9	-0.022547709
215	0xbcc4a9a9	-0.024006682
216	0x3bf3c9af	0.007439814
217	0xba3d2991	-0.0007215972
218	0xbbe6c998	-0.007043075
219	0xbd23aa6d	-0.039957453
220	0xbd60a4a2	-0.054844506
221	0xbd6edf0a	-0.058318175
222	0xbdeecc03	-0.11660006
223	0xbd606aac	-0.05478923
224	0x3c30d25d	0.010792342
225	0xbd572414	-0.05252464
226	0x3c116503	0.008874181
227	0xbcfab389	-0.030603187
228	0xbcb6cbed	-0.022314036
229	0x3c616f2f	0.013759418
230	0xbda39be7	-0.079887204
231	0xbc2cd26f	-0.010548218
232	0xbd383024	-0.044967785
233	0xbd26c948	-0.0407193
234	0xbd61263b	-0.0549681
235	0x3b92de3f	0.00448206
236	0x3cc325f4	0.023821808
237	0xbc9e50f1	-0.019325705
238	0x3c1374de	0.009000031
239	0x3c7a8c46	0.015292233
240	0x3bba120e	0.005678422
241	0xbcfd8bc8	-0.030950442
242	0x3c2965dd	0.0103392275
243	0x3c8684b7	0.016420705
244	0xbc004765	-0.007829522
245	0xbd8ffd53	-0.0703074
246	0xbda47456	-0.08030002
247	0xbd1f59f2	-0.038904138
248	0xbd91a313	-0.07111182
249	0xbd9edeca	-0.077573374
250	0xbd7c7f54	-0.061644867
251	0xbc849a77	-0.016186936
252	0x3c2f38dc	0.010694709
253	0x3cc8c87f	0.024509666
254	0x3c41e315	0.011833926
255	0xbd4ebc63	-0.05047263

fc1.bias f4 [128]
0	0xbd704ee7	-0.058668997
1	0xba8500f0	-0.0010147374
2	0x3c38982f	0.011266752
3	0xbd099027	-0.03358474
4	0xbc705306	-0.014668232
5	0xbc45b31b	-0.012066628
6	0xbb9f3c78	-0.0048595034
7	0xbdbe36ba	-0.09287782
8	0x3b5843c5	0.0032999378
9	0xbd1948ba	-0.037422873
10	0xbd091e16	-0.033475958
11	0xbd18a47b	-0.037266236
12	0xbcb4ef15	-0.02208666
13	0xbcc25b34	-0.02372513
14	0xbab68773	-0.0013925865
15	0xbcbdc68c	-0.023165964
16	0xbc808135	-0.01568661
17	0x3cf48ddd	0.029852802
18	0xbd0e78ba	-0.034783103
19	0xbcfdd103	-0.030983454
20	0x3bfc528c	0.00770027
21	0x3b788d88	0.0037926156
22	0x3cdbe47c	0.026842348
23	0xbafbe5c8	-0.001921826
24	0x3cff76cb	0.031184575
25	0xbd4b90fd	-0.04969882
26	0xbd1e56c3	-0.03865696
27	0x3ca3e473	0.020006394
28	0x3a11e698	0.0005565672
29	0xbd11d59e	-0.03560411
30	0x3ceeea6c	0.029164515
31	0x3b2db34f	0.0026504581
32	0xbc9389ea	-0.018010098
33	0xbd651078	-0.05592391
34	0xbd3446cf	-0.04401284
35	0xbc215801	-0.009847642
36	0x3c28c9a4	0.010301981
37	0xbbb6f598	-0.0055834763
38	0xbc3de513	-0.01159026
39	0xbda0f58d	-0.07859335
40	0xbdbd2a0a	-0.09236534
41	0xbcfc9d13	-0.030836618
42	0xbcf4e5b1	-0.029894682
43	0xbd32a25f	-0.04361188
44	0xbd3e6b7c	-0.046489224
45	0xbccbe60e	-0.024889972
46	0x3b9c8133	0.004776144
47	0xbd6e5d5f	-0.058194514
48	0xbd16b8e0	-0.036797404
49	0x3d39a7dc	0.0453261
50	0x391fa70d	0.00015225653
51	0x3a93d222	0.0011277834
52	0xbd4d7e24	-0.050169125
53	0xbd5b27ea	-0.053504862
54	0x3ac3f0a7	0.0014949039
55	0xbdd2d21b	-0.10293981
56	0xbd8520f8	-0.06500429
57	0x3cf6be5a	0.030120064
58	0xbc4f5f1f	-0.012656956
59	0x3c8d4716	0.01724581
60	0xbb28be2b	-0.0025748115
61	0x3a0ed41c	0.0005448477
62	0x3c9d686e	0.019214835
63	0xbcc3c83e	-0.023899194
64	0x3ae70ab9	0.0017627097
65	0xbd708c3f	-0.0587275
66	0xbc79d6b0	-0.015248939
67	0x3c4c4230	0.012466952
68	0x3c021d09	0.007941493
69	0xbcca19d0	-0.024670511
70	0xbc75549b	-0.014973785
71	0xbc4bb911	-0.01243426
72	0x3c87ad82	0.016562227
73	0x3cdc6519	0.026903676
74	0xbd9beb94	-0.07613292
75	0x3bda42a1	0.006660775
76	0x3c1a53e9	0.00941942
77	0xbb509c8d	-0.0031831593
78	0x3ccfef9d	0.025382811
79	0xbc0e66af	-0.008691474
80	0x3b7bddc6	0.0038431748
81	0xbbbb6229	-0.0057184887
82	0xbcfc4766	-0.030795764
83	0xbd6be26f	-0.05758899
84	0x3c612344	0.013741318
85	0xbb0d4ef1	-0.0021561945
86	0xbc72d018	-0.014820121
87	0xbd269d0b	-0.04067711
88	0x3d10216d	0.035188127
89	0xbbe3fcf9	-0.006957647
90	0xbc736b9e	-0.014857201
91	0x3b05ef2b	0.0020436745
92	0x3cde8bb8	0.027166232
93	0x3d19dcae	0.037563972
94	0xbc60bffd	-0.013717649
95	0xbd84de7c	-0.06487748
96	0x3c951c6b	0.018202027
97	0xbda0ccde	-0.07851575
98	0xbc72de6d	-0.014823538
99	0xbcac7458	-0.02105157
100	0xbd5f273f	-0.054480787
101	0xbc93b875	-0.018032292
102	0x3a770d00	0.00094242394
103	0xbd760c0b	-0.06007008
104	0xbd1d2777	-0.038367715
105	0x3bcd0cea	0.006257643
106	0x3cb02939	0.021504031
107	0x3ba68c77	0.0050826627
108	0xbd54be4c	-0.051939294
109	0xbc480ba6	-0.012209808
110	0x3d8a2b13	0.06746497
111	0x3d3e2086	0.046417736
112	0xbcef0b13	-0.029180085
113	0xbc41c375	-0.011826386
114	0xbc899345	-0.016793856
115	0xbc2dfb9b	-0.010619069
116	0x3c3a2438	0.011361174
117	0xbc31e248	-0.010857172
118	0x3c529d58	0.0128548965
119	0xbd5b92b6	-0.05360671
120	0xbba90b31	-0.005158805
121	0xbd400114	-0.04687603
122	0x3c92a5fb	0.017901411
123	0xbcfd2dfc	-0.030905716
124	0x3baeff8e	0.005340523
125	0xbcfbe7ec	-0.030750237
126	0xbd476773	-0.04868264
127	0xbcf4517c	-0.029824011

fc2.weight f4 [10, 128]
0	0xbd97f2e4	-0.074193746
1	0xbd7ee306	-0.062228225
2	0xbe1fdf17	-0.15612446
3	0xbd8721db	-0.06598254
4	0x3d9259f0	0.071460605
5	0x3e2e6066	0.1702896
6	0xbbf3428a	-0.0074237036
7	0xbe0b64aa	-0.13612619
8	0x3df65dce	0.120296106
9	0x3d2e92d7	0.042620506
10	0xbe685284	-0.22687727
11	0xbe2d2e10	-0.16912103
12	0x3d1cbbbb	0.03826497
13	0xbebd0976	-0.3692128
14	0x3d963a2e	0.07335316
15	0xbe10c4df	-0.141376
16	0xbe2e1a4a	-0.17002216
17	0xbeaba76c	-0.3352617
18	0xbd4f15b2	-0.0505578
19	0xbd509caa	-0.050930656
20	0x3e14c371	0.1452768
21	0x3c89f2a0	0.016839325
22	0x3d6baac3	0.057535898
23	0x3d3bff08	0.045897514
24	0x3d844352	0.06458153
25	0xbe89e7a2	-0.26934534
26	0xbd6cce34	-0.057813838
27	0xbe0c3d40	-0.1369524
28	0x3d0b2d28	0.03397861
29	0xbeb56950	-0.3543191
30	0xbde89693	-0.11356845
31	0x3dafcf84	0.08584502
32	0x3d800f66	0.06252937
33	0xbc383564	-0.011243198
34	0xbe5590e0	-0.20856047
35	0x3da4d5ab	0.080485664
36	0xbb7d24f0	-0.0038626753
37	0x3c61100c	0.013736736
38	0xbc2ec43a	-0.010666901
39	0xbe642aa1	-0.22281887
40	0xbdc44684	-0.09583762
41	0xbc9f091f	-0.019413529
42	0xbd50c86e	-0.050972395
43	0x3dc38285	0.09546379
44	0x3d5b9d36	0.053616725
45	0x3d687350	0.056750596
46	0x3c1965cb	0.009362648
47	0x3d871eab	0.06597646
48	0xbeb08446	-0.34475917
49	0xbe4e205b	-0.2012953
50	0x3de13cae	0.10997902
51	0x3b15b8f8	0.0022845846
52	0xbe7d44a2	-0.24733213
53	0x3e0e876f	0.13918851
54	0x3cca3da0	0.024687588
55	0xbe7c2f69	-0.2462746
56	0xbe3c1507	-0.18367396
57	0xbe6f93b8	-0.23396194
58	0x3d27f9bb	0.041009646
59	0xbda299fc	-0.079395264
60	0xbd745946	-0.05965545
61	0x3d5dbfc3	0.054137956
62	0x3e1ea9a2	0.15494397
63	0xbe86df66	-0.26342314
64	0x3ba219f0	0.0049469396
65	0xbd084df9	-0.033277486
66	0x3bf45e76	0.0074575497
67	0xbcb98f54	-0.022651352
68	0x3dbfd82e	0.09367405
69	0x3baf5a7b	0.0053513623
70	0xbcaee0f6	-0.021347504
71	0x3c10e925	0.0088446485
72	0x3d19fc63	0.03759421
73	0xbe311e90	-0.17296815
74	0x3da50d6b	0.080592
75	0x3cb6907a	0.022285689
76	0x3d952c79	0.07283873
77	0xbe385720	-0.18001986
78	0xbea783a4	-0.3271762
79	0xbd9b62df	-0.075872175
80	0xbcb4a653	-0.022051966
81	0xba3cf21a	-0.0007207707
82	0xbd90d0c2	-0.070710674
83	0x3d92f37f	0.071753494
84	0x3c249c23	0.0100469915
85	0xbc9b8b1c	-0.018987231
86	0x3dc3d08b	0.09561261
87	0xbe28cf8c	-0.16485423
88	0x3daecfe7	0.08535748
89	0xbd946fe7	-0.07247906
90	0xbd294d1b	-0.0413333
91	0xbe4b50d2	-0.19855049
92	0x3ddaa5b7	0.10676139
93	0xbe1a19fc	-0.15048975
94	0x3b929e55	0.004474441
95	0xbd955747	-0.072920375
96	0x3d951689	0.07279689
97	0xb9800b6a	-0.00024422567
98	0x3d96d106	0.07364087
99	0xbd857eae	-0.06518303
100	0xbe91ffa1	-0.28515342
101	0x3e0b78e5	0.13620336
102	0xbe56d0a5	-0.20978029
103	0xbd239ed2	-0.039946385
104	0xbd1a6889	-0.03769735
105	0x3d863207	0.06552511
106	0x3dab8ade	0.08376096
107	0x3d351245	0.044206876
108	0xbe884eb3	-0.26622543
109	0xbbd7793c	-0.0065757316
110	0xbe6b7d13	-0.22996931
111	0xbe91530c	-0.28383672
112	0xbbb097be	-0.005389183
113	0xbd5b69ee	-0.05356782
114	0xbd5c9f42	-0.053862818
115	0x3d885b89	0.06658084
116	0x3deec09a	0.116578296
117	0x3c0f6bb8	0.0087537095
118	0x3d9cf27f	0.0766344
119	0xbe2aa51c	-0.16664547
120	0xbea7a616	-0.327439
121	0x3dbf6b13	0.09346595
122	0xbe863bfb	-0.26217636
123	0xbda362a5	-0.07977799
124	0xbd2b3e48	-0.041807443
125	0x3d92ae48	0.07162148
126	0xbe51a449	-0.20472826
127	0x3dbdb5f7	0.09263223
128	0xbb3ed169	-0.0029116517
129	0x3d8c0004	0.068359405
130	0x3dbb1aa8	0.09135944
131	0x3e047089	0.12933554
132	0x3cc85cab	0.02445825
133	0xbe4d04aa	-0.2002131
134	0x3c41cb99	0.011828327
135	0xbdb83c78	-0.089959085
136	0x3d815066	0.06314163
137	0xbe7ab5b6	-0.2448338
138	0x3dbbc367	0.091681294
139	0xbdc383ca	-0.09546621
140	0xbb6864ef	-0.0035460552
141	0x3db1ff90	0.08691323
142	0xbd1755a7	-0.03694692
143	0xbd567175	-0.052354295
144	0x3dda3f6b	0.10656627
145	0x3d81f82d	0.06346164
146	0xbd05c882	-0.032661922
147	0x3cf67ef5	0.030089835
148	0xbe438aef	-0.19095968
149	0xbe209884	-0.1568318
150	0x3dbcc9bd	0.09218166
151	0xbd016618	-0.031591505
152	0x3d72f8b9	0.05931923
153	0x3d3a2e83	0.045454513
154	0x3ceafe7b	0.028685799
155	0x3e20bc93	0.15696935
156	0x3d887914	0.06663719
157	0xbe97f634	-0.29680026
158	0x3dfea340	0.12433481
159	0xbe494cb9	-0.19658174
160	0x3d5d2466	0.05398979
161	0xbe846dc1	-0.25864986
162	0xbe801d85	-0.25022522
163	0x3ca1d65e	0.019755539
164	0x3d839333	0.064245604
165	0x3c6f61ae	0.014610691
166	0x3c8b1118	0.016975924
167	0xbe5d51a6	-0.21613178
168	0xbe63c03f	-0.22241305
169	0xbd144355	-0.036197025
170	0xbc956456	-0.01823632
171	0xbe89290c	-0.2678913
172	0xbd9fb3b1	-0.07797945
173	0xbd0c186d	-0.03420298
174	0x3d8a5a3a	0.067554906
175	0xbe117893	-0.14206152
176	0xbce5d8b3	-0.028057432
177	0x3e05bd0c	0.13060397
178	0xbdbf724f	-0.093479745
179	0x3d41cb9f	0.04731333
180	0xbd790e89	-0.060804877
181	0xbec957b6	-0.3932473
182	0xbcdc8a1f	-0.02692133
183	0xbeb9f583	-0.36320123
184	0xbe9505b8	-0.29105926
185	0x3e043a27	0.12912808
186	0xbd5a5119	-0.053299997
187	0x3da50f24	0.080595285
188	0x3d09cf3b	0.033644896
189	0xbcc57309	-0.024102705
190	0x3e303090	0.17206025
191	0xbd1a228a	-0.037630595
192	0x3d152182	0.03640891
193	0xbdba1203	-0.09085467
194	0xbe481692	-0.1953986
195	0xbce202d6	-0.027589243
196	0x3e069071	0.13141038
197	0x3d34c1c4	0.0441301
198	0xbdc4a83b	-0.096024
199	0xbdd517ed	-0.10404954
200	0x3d81c805	0.06336979
201	0xbdedbb6b	-0.11608013
202	0xbe905e4d	-0.28196946
203	0x3dfc22b1	0.12311304
204	0x3d6669b1	0.05625314
205	0x3e4d7e4b	0.20067708
206	0x3d9f6396	0.077826664
207	0x3cf1161f	0.029429493
208	0x3c90a9c1	0.01765907
209	0x3cd1ab8e	0.025594499
210	0xbe4d1c99	-0.2003044
211	0x3d9c466f	0.07630622
212	0xbd5e8307	-0.054324176
213	0x3d19bd6b	0.03753416
214	0xbe3e8c5e	-0.18608233
215	0xbd3e04f7	-0.046391454
216	0x3d90a5fe	0.070629105
217	0xbcb58316	-0.022157233
218	0xbc8f8c83	-0.017523056
219	0x3e068397	0.13136135
220	0x3df04c5d	0.11733315
221	0x3e0fb302	0.1403313
222	0x3d7607aa	0.060065903
223	0xbc9dcbb6	-0.019262176
224	0xbdbe81c6	-0.09302096
225	0xbe246d3c	-0.16057295
226	0xbe1b26fc	-0.1515159
227	0xbcafd8ef	-0.021465747
228	0xbe37f977	-0.17966257
229	0xbe41da48	-0.18930924
230	0x3dfc7996	0.12327878
231	0xbe150984	-0.14554411
232	0x3d09307a	0.033493496
233	0xbe5771d7	-0.2103952
234	0xbe24db6a	-0.16099325
235	0xbc7c4528	-0.0153973475
236	0x3d307b00	0.043086052
237	0x3d36413b	0.044495802
238	0x3e3a8483	0.18214612
239	0x3e093dd4	0.13402492
240	0x3d5a596b	0.053307932
241	0xbd86e4db	-0.065866195
242	0x3d803eb4	0.0626196
243	0xbd3be9f0	-0.045877397
244	0xbe0a2746	-0.13491544
245	0x3d800ddd	0.06252644
246	0x3d4bf9ac	0.049798653
247	0xbdfdcd4e	-0.123926744
248	0x3e08a3bb	0.13343708
249	0xb99cb17e	-0.0002988688
250	0xbd3e66f2	-0.046484895
251	0x3cd082e3	0.025453037
252	0x3d480c19	0.048839662
253	0xbdb83612	-0.08994688
254	0xbbed67cb	-0.007245039
255	0xbe8a488f	-0.27008483

fc2.bias f4 [10]
0	0x3dff57ce	0.12467919
1	0x3e830d51	0.25596097
2	0x3dac4fcf	0.0841366
3	0xbdaba702	-0.083814636
4	0xbd8a75d8	-0.06760758
5	0xbd1e3d12	-0.03863246
6	0xbe79cd6c	-0.24394768
7	0xbcef8a73	-0.029240822
8	0x3c5c9da5	0.01346532
9	0xbdab5389	-0.083655424
